app/src/main/assets/converted_model.tflite (tflite, 2216 bytes, 8 tensors)

dense/MatMul_bias f4 [6]
0	0xbc4a4ff7	-0.012348167
1	0x3d87c556	0.06629436
2	0xbcdf2a1d	-0.02724176
3	0x3d424f3b	0.04743884
4	0x3d4b785c	0.04967533
5	0xbce42c00	-0.027853012

dense/kernel/transpose f4 [6, 6]
0	0xbcc09461	-0.023508253
1	0xbdb06126	-0.086122796
2	0x3a10f899	0.0005530208
3	0x3dca0141	0.098635204
4	0xbcbffa42	-0.023434762
5	0xbd946191	-0.07245172
6	0xbe26c174	-0.16284734
7	0x3f9e5a57	1.237132
8	0xbbf84e23	-0.007577674
9	0xbeb52f47	-0.35387632
10	0xbd816964	-0.0631893
11	0x3cbb4367	0.022859288
12	0x3e1e1f1f	0.1544156
13	0xbf8d6274	-1.104567
14	0x3c1b69e5	0.009485696
15	0x3e48f0e6	0.19623145
16	0xbc893fd3	-0.016754067
17	0x3c1a59f4	0.009420861
18	0xbe0ba1b1	-0.13635899
19	0x3fa006c8	1.250207
20	0xbc3f714f	-0.01168473
21	0xbeb36c3b	-0.3504351
22	0xbd448ec7	-0.047987726
23	0x3d0ee69e	0.034887902
24	0xbdcfc042	-0.10144092
25	0x3f9f9595	1.2467524
26	0xbb8713b7	-0.0041222232
27	0xbeba0083	-0.36328515
28	0xbd3c35b2	-0.045949645
29	0x3c0d30d2	0.008617597
30	0xbd357bce	-0.044307522
31	0x3d273289	0.04081968
32	0xbb100727	-0.002197692
33	0xbd268cf0	-0.040661752
34	0xbca8708a	-0.020561475
35	0xbbe38405	-0.006943228

dense_1/MatMul_bias f4 [6]
0	0x3d3e8853	0.046516728
1	0x3d57a4e5	0.05264749
2	0x3da04417	0.07825487
3	0x3d4c71c1	0.04991317
4	0xbca57b64	-0.020200439
5	0x3d6e2889	0.058144126

dense_1/kernel/transpose f4 [6, 6]
0	0xbd6d7d2e	-0.05798071
1	0x3e7386a9	0.23781838
2	0xbea37d5d	-0.31931582
3	0x3e73a7f1	0.23794533
4	0x3e9846e8	0.29741597
5	0xbc8ba8b3	-0.017048215
6	0x3c90e71c	0.017688327
7	0x3e7791aa	0.2417666
8	0xbe917bb9	-0.28414705
9	0x3e47ba2a	0.1950461
10	0x3e78ca60	0.2429595
11	0x3ceb5b9a	0.028730202
12	0xbd2ef129	-0.042710457
13	0x3e85b67e	0.26115793
14	0xbe8b9de1	-0.2726889
15	0x3e19d5e6	0.15023002
16	0x3e61a040	0.22033787
17	0x3ba5e0c9	0.005062197
18	0xbdf397e2	-0.11894204
19	0x3e3293f3	0.1743925
20	0xbe91b250	-0.28456354
21	0x3e59a426	0.21254024
22	0x3e1f8f00	0.15581894
23	0xbce81b60	-0.028333366
24	0xbd0b2adb	-0.033976417
25	0xbabf9d3a	-0.0014619001
26	0xbc6edd71	-0.014579163
27	0xbd0ba28d	-0.034090567
28	0xbd460312	-0.04834277
29	0x3c6cfa5a	0.014463985
30	0xbc1ae2e9	-0.009453514
31	0x3e3aa9e8	0.18228877
32	0xbe8cac09	-0.27475002
33	0x3e5d89f3	0.21634655
34	0x3e8f36e7	0.27971575
35	0x3ba54833	0.005044007

dense_2/MatMul_bias f4 [6]
0	0xbc835255	-0.01603047
1	0x3f2995fb	0.6624448
2	0xbc27db39	-0.010245138
3	0xbbdf28f8	-0.006810304
4	0x3b40ec40	0.002943769
5	0x3f2584c6	0.6465572

dense_2/kernel/transpose f4 [6, 6]
0	0x3e7aea35	0.24503405
1	0x3e833012	0.25622612
2	0x3e9a89ef	0.3018336
3	0x3ea170a0	0.3153124
4	0xbca85f93	-0.020553386
5	0x3e9bf39f	0.30459306
6	0xbe633445	-0.22187908
7	0xbe80b71a	-0.25139695
8	0xbe7d4ea2	-0.24737027
9	0xbe909884	-0.2824136
10	0x3cf13e39	0.029448615
11	0xbe903cbc	-0.28171337
12	0x3e75be7d	0.23998447
13	0x3e2d71f3	0.16938
14	0x3e726220	0.23670244
15	0x3e935b16	0.2878043
16	0xbd46f4cd	-0.048573304
17	0x3e919c59	0.28439596
18	0x3e67d759	0.22640742
19	0x3e49e03f	0.1971445
20	0x3e6e6ad4	0.23282939
21	0x3e4ee88c	0.20205897
22	0x3b19773d	0.0023417019
23	0x3e5677a9	0.20944084
24	0x3e658377	0.22413431
25	0x3e76594a	0.24057499
26	0x3e47d64d	0.19515343
27	0x3e6f316a	0.23358694
28	0xbd06b376	-0.03288599
29	0x3e76b7e1	0.24093582
30	0xbe7d8b8b	-0.24760263
31	0xbe923c13	-0.28561458
32	0xbe7ff4fc	-0.24995798
33	0xbe8d494f	-0.27594993
34	0xbc8ac003	-0.016937261
35	0xbe953586	-0.29142398

dense_3/MatMul_bias f4 [2]
0	0x3e817744	0.25286305
1	0xbef165d5	-0.47148004

dense_3/kernel/transpose f4 [2, 6]
0	0xbd95195c	-0.072802275
1	0x3f240d3d	0.640827
2	0xbdae1a80	-0.08501148
3	0xbe10a376	-0.14124855
4	0xbe283535	-0.16426547
5	0x3f3fb854	0.7489064
6	0x3ece39fa	0.40278608
7	0xbf55f892	-0.83582413
8	0x3ed15511	0.40885213
9	0x3ec4b8bc	0.3842219
10	0x3ecd84c4	0.40140355
11	0xbf5c37e6	-0.86022794
